app/mnist_ffn.pth (torch, 320032 bytes, 4 tensors)

l1.weight f4 [100, 784]
0	0x3d1a623a	0.037691332
1	0x3dcb3fc4	0.09924272
2	0x3dbadb7f	0.09123897
3	0x3dad9f5f	0.08477663
4	0x3d92a3bf	0.07160138
5	0x3d09a22f	0.033601936
6	0x3d9f8d0a	0.07790573
7	0x3dc23860	0.09483409
8	0x3db6c74b	0.08924731
9	0x3da5a39f	0.08087849
10	0x3dbe47f6	0.09291069
11	0x3d1617a5	0.036643643
12	0x3d9b3d11	0.07580007
13	0x3d2b5486	0.041828655
14	0x3db53890	0.08848679
15	0x3dc79e73	0.09747019
16	0x3d99123b	0.0747418
17	0x3d378d5a	0.044812538
18	0x3dc10c93	0.094262265
19	0x3dc3cb2e	0.09560238
20	0x3d9264ad	0.07148109
21	0x3d1b4e28	0.037916332
22	0x3d6d61b7	0.057954516
23	0x3d3327f3	0.04373927
24	0x3dd3d928	0.10344154
25	0x3d45ef8c	0.048324153
26	0x3d8aae8f	0.06771576
27	0x3d29aa81	0.04142237
28	0x3d781fb3	0.060577106
29	0x3d383f7a	0.04498241
30	0x3d3e7d31	0.04650611
31	0x3d83e3ec	0.06439957
32	0x3dc91988	0.09819323
33	0x3d9e2de3	0.07723596
34	0x3d90111a	0.07034512
35	0x3dbd97ba	0.09257455
36	0x3db000e5	0.085939206
37	0x3d2e6c26	0.042583607
38	0x3da2a13d	0.0794091
39	0x3d1866ab	0.037207287
40	0x3d34c0d2	0.0441292
41	0x3d09e7d9	0.033668373
42	0x3d7d5e39	0.061857436
43	0x3d3cf2e2	0.04613007
44	0x3d86b082	0.06576635
45	0x3d27c3a2	0.040958054
46	0x3db103b1	0.08643282
47	0x3d05e59a	0.03268967
48	0x3dbc589b	0.09196588
49	0x3d98e3fb	0.07465359
50	0x3d9750c3	0.07388451
51	0x3dcdd2c0	0.10049963
52	0x3d80f013	0.062957905
53	0x3d188891	0.037239615
54	0x3d39082b	0.045173805
55	0x3d4ce0e9	0.05001918
56	0x3dd34e5c	0.1031768
57	0x3dc2d6ee	0.09513651
58	0x3dbba8d1	0.091630585
59	0x3d9208c9	0.07130582
60	0x3d66e3dc	0.056369647
61	0x3d43c3a5	0.047794003
62	0x3d0c2702	0.03421689
63	0x3db8d27d	0.090245225
64	0x3daad3a2	0.08341147
65	0x3d7db74b	0.06194238
66	0x3d5cfff1	0.053955022
67	0x3d6f8f09	0.05848602
68	0x3dcc360e	0.099712476
69	0x3daab709	0.083356924
70	0x3d634668	0.055487067
71	0x3d8e92db	0.06961604
72	0x3d9a18a2	0.075242296
73	0x3d9fa1ed	0.07794557
74	0x3dbf1c4e	0.093315706
75	0x3d4153a0	0.04719889
76	0x3d50007d	0.050781716
77	0x3d8e9f81	0.06964017
78	0x3d913541	0.070902355
79	0x3d936b80	0.071982384
80	0x3d2f6d1e	0.04282867
81	0x3d83f03e	0.06442307
82	0x3d993a8c	0.0748187
83	0x3dc3b6e8	0.09556371
84	0x3d4a884d	0.049446393
85	0x3d8893f3	0.06668844
86	0x3d1f9d14	0.03896816
87	0x3db33a50	0.087513566
88	0x3d80d058	0.062897384
89	0x3d08c4c0	0.03339076
90	0x3d55dbc1	0.052211527
91	0x3dc5028d	0.09619627
92	0x3d0f83ee	0.035037927
93	0x3d9e89a0	0.07741094
94	0x3d68e85f	0.05686223
95	0x3dcd9f6a	0.100401714
96	0x3d061a0b	0.03273968
97	0x3d463457	0.04838976
98	0x3d9094b9	0.070596166
99	0x3d8bf04f	0.068329446
100	0x3d8344b3	0.06409588
101	0x3da682a7	0.08130389
102	0x3dcfe314	0.101507336
103	0x3db66641	0.08906222
104	0x3d8b51a4	0.06802681
105	0x3dbcbd42	0.092157856
106	0x3db0b6f9	0.08628649
107	0x3d93dbf6	0.072196886
108	0x3dbb9ef0	0.09161174
109	0x3d89dd88	0.06731707
110	0x3dc30372	0.095221415
111	0x3d77b034	0.060470775
112	0x3d948f41	0.07253886
113	0x3dab6f04	0.08370784
114	0x3d1691ca	0.03676013
115	0x3d33ac3a	0.04386542
116	0x3d454b84	0.04816772
117	0x3dc0df74	0.0941762
118	0x3dbe6074	0.09295741
119	0x3c864051	0.01638809
120	0x3c5b1f61	0.0133741805
121	0x3cfe638a	0.031053323
122	0x3d8a6085	0.06756691
123	0x3d6ea191	0.05825955
124	0x3d9a1848	0.075241625
125	0xbcf591fb	-0.029976835
126	0xbd133935	-0.03594323
127	0xbdb87fa3	-0.0900872
128	0xbd29f0af	-0.0414893
129	0xbd912bf6	-0.07088463
130	0xbd23af54	-0.039962128
131	0xbca93b32	-0.02065811
132	0xbd9ed493	-0.07755389
133	0x3d895612	0.0670587
134	0x3d5ee059	0.054413173
135	0x3d15c36d	0.036563326
136	0x3d5a4cdd	0.05329596
137	0x3d12ba39	0.035822127
138	0x3dca698a	0.09883411
139	0x3dc77cfa	0.09740634
140	0x3d63a33b	0.05557559
141	0x3db9e6f4	0.09077254
142	0x3dc92404	0.098213226
143	0x3d8f836f	0.07007491
144	0x3d05d228	0.032671124
145	0x3d654d36	0.055981837
146	0x3d95d502	0.07316019
147	0x3bc7a89c	0.006093098
148	0x3c753054	0.014965136
149	0xbca0a485	-0.019609699
150	0x3c62a4fd	0.013833282
151	0x3d7c7759	0.061637256
152	0xbccb4e0b	-0.024817487
153	0xbd530466	-0.051517867
154	0xbd9a1082	-0.0752268
155	0xbd030a7d	-0.031992424
156	0xbc648d34	-0.013949681
157	0xbd6676e6	-0.056265734
158	0xbda5ebf8	-0.08101648
159	0xbd5e662d	-0.05429666
160	0xbc5a2b60	-0.0133160055
161	0x3dbff429	0.09372742
162	0x3d0ca61b	0.034338098
163	0x3d29f61f	0.041494485
164	0x3dc5830d	0.096441366
165	0x3d93f68a	0.07224758
166	0x3d82025f	0.063481085
167	0x3d7648a2	0.06012786
168	0x3dc585fd	0.09644697
169	0x3d638254	0.055544212
170	0x3d808cdf	0.06276869
171	0x3d96c04d	0.07360897
172	0x3dbc75ff	0.092021935
173	0x3d9497ca	0.07255514
174	0x3d3cade5	0.046064276
175	0xbc33f125	-0.010982786
176	0xbcaf6fca	-0.02141561
177	0xbc903219	-0.017602013
178	0xbe10ab65	-0.14127882
179	0xbd0b5d84	-0.03402473
180	0xbd23b49f	-0.039967176
181	0xbd80b911	-0.062852986
182	0xbcf579f5	-0.02996538
183	0xbd8e9518	-0.06962031
184	0xbd7d0fac	-0.061782524
185	0x3e160873	0.1465166
186	0xbd0e7386	-0.03477814
187	0xbda455d7	-0.08024185
188	0xbd8bb245	-0.068211116
189	0xbca0d7c0	-0.019634128
190	0x3d412666	0.04715576
191	0x3daf4cf3	0.08559599
192	0x3d845e28	0.064632714
193	0x3db7228f	0.089421384
194	0x3d526090	0.05136162
195	0x3d4f9240	0.050676584
196	0x3da048d7	0.07826393
197	0x3db4004b	0.087891184
198	0x3da2bcd5	0.07946173
199	0x3d6fac15	0.05851372
200	0x3d6caf43	0.05778433
201	0x3d8b11ed	0.067905284
202	0x3c7f4ab9	0.01558178
203	0xbd058141	-0.03259397
204	0xbd750f1b	-0.05982886
205	0xbddf4872	-0.1090249
206	0xbdbcb599	-0.092143245
207	0xbd4d0f01	-0.050063137
208	0xbd82d4bc	-0.06388232
209	0xbcbc1d2b	-0.022963127
210	0xbd63a376	-0.05557581
211	0xbd29bee2	-0.041441806
212	0xbd9d8822	-0.07691981
213	0x3dc146f7	0.094373636
214	0xbd39204a	-0.04519681
215	0xbc6d64e8	-0.01448939
216	0xbc8da360	-0.017289817
217	0xbd0c12f0	-0.034197748
218	0x3dda19b0	0.10649431
219	0x3d74ffc8	0.059814245
220	0x3dc690c8	0.096955836
221	0x3dbcfde1	0.09228111
222	0x3db0bc15	0.08629624
223	0x3dd49272	0.10379495
224	0x3d528f32	0.051406093
225	0x3d734d95	0.05940016
226	0x3d92b1d1	0.07162822
227	0x3dbeee78	0.09322828
228	0x3d7237f5	0.059135396
229	0x3d88bbc1	0.06676436
230	0xbd43940d	-0.047748614
231	0xbe28401d	-0.16430707
232	0xbdbe71b4	-0.09299031
233	0xbdd2efce	-0.10299645
234	0xbd9f3510	-0.07773793
235	0x3d9b197f	0.07573222
236	0x3d05ff63	0.03271426
237	0xbd79064f	-0.060797032
238	0xbd36e082	-0.0446477
239	0xbd58fb9d	-0.052974332
240	0xbd1bd77d	-0.038047303
241	0xbd4644ab	-0.04840533
242	0xbc39fe8f	-0.011352195
243	0xbd2a652f	-0.041600402
244	0xbd4bf930	-0.04979819
245	0xbd9b87e6	-0.0759428
246	0x3e637b36	0.2221497
247	0x3dad55b7	0.084636144
248	0x3d56b929	0.052422676
249	0x3d244898	0.040108293
250	0x3da278e3	0.079332136
251	0x3da2ec92	0.079552785
252	0x3db812b8	0.08987945
253	0x3db84418	0.08997363
254	0x3da94e2f	0.082668655
255	0x3d395023	0.04524244

l1.bias f4 [100]
0	0xbdcd6a41	-0.10030032
1	0xbdf28944	-0.118425876
2	0xbd7620a4	-0.060089722
3	0xbdf45ae2	-0.11931397
4	0xbd8e0dd3	-0.069362305
5	0xbdb04e85	-0.086087264
6	0xbcfc0055	-0.030761877
7	0xbe4a6e11	-0.1976855
8	0xbdb48c2c	-0.08815798
9	0xbdc93260	-0.098240614
10	0x3b801b62	0.0039095143
11	0xbd01b910	-0.03167063
12	0xbd84f0b2	-0.064912215
13	0xbd34c84e	-0.044136338
14	0xbded28e4	-0.11580065
15	0xba7501ca	-0.0009346275
16	0xbdcff44d	-0.101540186
17	0xbd784268	-0.060610205
18	0xbe0b6164	-0.1361137
19	0xbda59e11	-0.080867894
20	0x3b8ff43c	0.0043931287
21	0xbd52bca0	-0.051449418
22	0xbd520dbc	-0.05128263
23	0xbd9a26b3	-0.075269125
24	0xbe224d12	-0.15849712
25	0xbd9553d1	-0.07291377
26	0x3d06aa32	0.032877155
27	0x3c84177f	0.016124485
28	0xbd261e7b	-0.040556412
29	0xbda5a02a	-0.080871895
30	0xbd8ae7b3	-0.06782474
31	0xbd460726	-0.04834666
32	0xbcffd5fa	-0.031229962
33	0xbd13924d	-0.036028195
34	0xbdc6446f	-0.096810214
35	0xbd993333	-0.074804686
36	0xbd43e9f3	-0.047830533
37	0xbcd66b90	-0.026174337
38	0xbd86409d	-0.06555293
39	0xbdaa7697	-0.083234005
40	0xbd760228	-0.06006065
41	0xbd5cc349	-0.053897176
42	0xbd8b74f8	-0.068094194
43	0xbde32515	-0.11091057
44	0xbcfc5487	-0.030802025
45	0xbd3c8469	-0.046024714
46	0xbd914864	-0.070938855
47	0xbdf88b3a	-0.1213593
48	0xbd28b362	-0.041186698
49	0xbded6a1f	-0.115925066
50	0xbd88ee09	-0.066860266
51	0xbdea7964	-0.11448935
52	0xbd93466d	-0.07191167
53	0xbde4f692	-0.11179842
54	0xbda8d559	-0.08243818
55	0xbe063539	-0.1310624
56	0xbcea97b2	-0.028636787
57	0xbd8e2431	-0.06940497
58	0xbda74c12	-0.08168806
59	0xbd270253	-0.0407737
60	0xbbc8efd2	-0.0061321044
61	0xbdec7649	-0.115459986
62	0xbda67f74	-0.081297785
63	0xbd2cc957	-0.0421842
64	0xbdc0714b	-0.09396609
65	0xbe170bbd	-0.14750572
66	0xbdb0d8f3	-0.0863513
67	0xbd2ca6d0	-0.042151272
68	0xbdb84a5a	-0.089985564
69	0xbdb1d9f0	-0.086841464
70	0x3c8d5429	0.017252045
71	0xbb7bc209	-0.0038415215
72	0xbe17ea14	-0.14835387
73	0xbd07fd5f	-0.033200618
74	0xbe12ac5e	-0.14323565
75	0xbd5fbb68	-0.054622084
76	0xbca5111c	-0.02014976
77	0xbe4b8f09	-0.19878782
78	0xbd935d8e	-0.071955785
79	0xbd7214ba	-0.059101798
80	0xbd86a5ec	-0.06574616
81	0xbe2e2184	-0.17004973
82	0xbd3a4b6a	-0.045482077
83	0x3cf19366	0.02948923
84	0xbe2eaf7d	-0.17059131
85	0xbc4f86fa	-0.012666458
86	0xbd089a93	-0.03335054
87	0xbc9285bc	-0.017886035
88	0xbde2d36a	-0.1107548
89	0xbdb7bfb8	-0.08972114
90	0xbd4a8924	-0.049447194
91	0xbda85b5b	-0.0822055
92	0xbd0bc64d	-0.03412466
93	0xbdc292ec	-0.095006794
94	0xbdde94e3	-0.10868242
95	0x3cdfb5ac	0.027308308
96	0xbdc26730	-0.09492338
97	0xbd24a29c	-0.04019414
98	0xbe819e41	-0.2531605
99	0xbdfc23d8	-0.12311524

l2.weight f4 [10, 100]
0	0x3cda79b0	0.026669353
1	0xbe3269be	-0.1742315
2	0xbc682ad5	-0.014170368
3	0x3ce678a2	0.028133694
4	0xbe0803aa	-0.13282648
5	0xbd94bda3	-0.07262733
6	0x3d11782c	0.035514995
7	0x3c05d1e4	0.008167718
8	0x3e590536	0.21193394
9	0x3e3b2ce3	0.18278842
10	0xbe0efe15	-0.13964112
11	0xbd2ca4fb	-0.042149525
12	0xbdbfaeef	-0.09359538
13	0x3dc6665d	0.09687493
14	0x3dd8431f	0.10559677
15	0x3d14340f	0.03618246
16	0x3e02570e	0.12728521
17	0xbeda4831	-0.42633203
18	0xbd9f81bd	-0.077884175
19	0xbd0f9b27	-0.035060074
20	0xbc918e4c	-0.017768048
21	0xbce5cdbc	-0.028052203
22	0xbb112ce8	-0.002215201
23	0xbe0c723d	-0.13715453
24	0x3e4132e4	0.1886707
25	0xbd15f5af	-0.036611255
26	0x3b9881ee	0.0046541607
27	0x3d29c51e	0.04144775
28	0xbe0d9951	-0.13828017
29	0xbdf3a95f	-0.11897539
30	0x3ab7f359	0.0014034315
31	0xbe81edec	-0.25376832
32	0xbdd5a93e	-0.10432671
33	0xbdbbe821	-0.091751345
34	0xbd87d237	-0.06631892
35	0x3b193855	0.0023379524
36	0xbeb9d8d4	-0.3629824
37	0x3cee5149	0.029091494
38	0xbeaa5e61	-0.3327513
39	0xbdae8650	-0.08521712
40	0xbcc7a83f	-0.024372218
41	0xbca521d0	-0.020157725
42	0xbd18f5b7	-0.037343707
43	0x3e806c0c	0.25082433
44	0x3dc3ac9c	0.09554407
45	0x3cd959d2	0.026532087
46	0x3d99877a	0.07496543
47	0x3e6c47d3	0.23074274
48	0x3e204078	0.15649593
49	0x3d7bcb4e	0.061473183
50	0x3d0716bd	0.03298067
51	0x3d6c3046	0.057663225
52	0xbc7e3c46	-0.0155173
53	0xbd880b39	-0.066427656
54	0x3d28ed7e	0.041242115
55	0x3e5846f0	0.2112081
56	0x3dca2bea	0.09871657
57	0xbe7e6b63	-0.24845652
58	0x3e2bb32e	0.1676757
59	0xbddf3044	-0.10897878
60	0x3dce4955	0.10072581
61	0x3dc5f44a	0.09665735
62	0xbdb6cd95	-0.089259304
63	0x3e18f22c	0.14936131
64	0xbdc66809	-0.09687812
65	0xbde23d7d	-0.11046884
66	0x3d0c0b87	0.03419068
67	0xbc216ebe	-0.009853063
68	0xbdf4a7c1	-0.11946059
69	0xbd70e4d8	-0.058811992
70	0xbe0240a6	-0.12719974
71	0x3e2126ec	0.15737504
72	0x3e9f7022	0.31140238
73	0xbc013573	-0.007886278
74	0x3e39a0a0	0.1812768
75	0x3d3e938d	0.046527434
76	0x3ceb7d26	0.028746199
77	0x3e41cb71	0.18925263
78	0x3d1cf628	0.03832069
79	0xbe4ce6c3	-0.20009904
80	0xbeaffab4	-0.3437096
81	0xbc06338c	-0.008191001
82	0xbb16c73d	-0.002300694
83	0xbd7e7180	-0.06211996
84	0x3db4cba7	0.08827906
85	0xbe40827b	-0.18799774
86	0xbdb740cd	-0.08947907
87	0x3d8720b6	0.06598036
88	0x3dcd394c	0.10020694
89	0x3d965e53	0.0734221
90	0xbc6bec5e	-0.014399616
91	0xbd2f279d	-0.042762388
92	0x3d0e5d21	0.034756783
93	0xbd87dd1b	-0.066339694
94	0xbe26e576	-0.1629847
95	0x3d90a4d7	0.07062691
96	0x3e17f468	0.14839327
97	0x3ab5d4f7	0.0013872673
98	0x3e8bd817	0.273133
99	0xbe17dc69	-0.14830174
100	0x3ccde292	0.025132451
101	0x3cd7cb8e	0.02634218
102	0xbd325d36	-0.043545924
103	0x3e0ec184	0.13941008
104	0x3d195656	0.037435852
105	0xbd2c1faf	-0.042022403
106	0x3c6ccf5d	0.014453736
107	0xbd137729	-0.03600231
108	0xbda0fb07	-0.0786038
109	0xbe1f5393	-0.15559225
110	0xbe9ad36a	-0.3023942
111	0xbd13a052	-0.036041565
112	0xbc31455c	-0.010819759
113	0x3d373564	0.04472865
114	0xbe19575e	-0.14974734
115	0xbd99897e	-0.07496928
116	0xbd6b7a2e	-0.057489567
117	0xbc896e05	-0.016776094
118	0x3db460fc	0.08807561
119	0xbe17d318	-0.1482662
120	0xbd87c3be	-0.06629132
121	0x3d0a240e	0.03372579
122	0x3e0ae967	0.13565598
123	0x3e235bb2	0.15952948
124	0xbe1e1c74	-0.15440542
125	0x3be64160	0.0070268363
126	0x3d8e2557	0.06940716
127	0xbd8f47c7	-0.06996112
128	0x3d482df5	0.048871953
129	0x3d275bd2	0.04085905
130	0x3da57ed7	0.080808334
131	0x3d09de2c	0.033659145
132	0x3d169fac	0.03677337
133	0x3dbf8995	0.093524136
134	0x3e165f49	0.14684786
135	0xbe1c7e12	-0.15282467
136	0xbde47b57	-0.11156338
137	0x3a884bdf	0.0010398588
138	0x3e234f74	0.15948278
139	0xbcc1149f	-0.023569403
140	0xbe03f5c0	-0.12886715
141	0xbd5f7aab	-0.054560345
142	0x3cb046f5	0.02151821
143	0xbd9e866e	-0.07740484
144	0x3c902292	0.01759461
145	0x3c43a8e1	0.011942119
146	0x3e1f76df	0.1557269
147	0x3e243de7	0.16039239
148	0xbd12c96a	-0.035836615
149	0x3d8f7fbb	0.070067845
150	0xbe8c0fd2	-0.2735582
151	0x3e7da183	0.24768643
152	0x3c1bc288	0.009506829
153	0x3a9e453b	0.0012075076
154	0x3d6da262	0.05801619
155	0xbd87b0cd	-0.06625519
156	0x3d7146a7	0.05890527
157	0x3dc23d02	0.094842926
158	0x3d1187ce	0.035529904
159	0x3d82a72f	0.06379544
160	0xbcce4336	-0.025178533
161	0xbc091bd0	-0.008368447
162	0xbbef9efe	-0.0073126545
163	0x3e090d30	0.13383937
164	0x3c0b2adb	0.008494104
165	0xb9e56a68	-0.00043757563
166	0xbe1ed538	-0.15511024
167	0xbd391d95	-0.045194227
168	0x3cdcff35	0.026977161
169	0x3e834cc6	0.2564451
170	0xbe193b02	-0.14963916
171	0x3c561194	0.013065714
172	0xbebcb024	-0.36853135
173	0x3da9e2bd	0.082952
174	0xbdc6d8df	-0.09709334
175	0x3dd85e78	0.105648935
176	0xbdf22bea	-0.11824782
177	0xbf1ee853	-0.6207325
178	0x3d3dcb8d	0.0463367
179	0x3d2e17b5	0.042503078
180	0x3e6249f5	0.22098525
181	0xbd3a94ba	-0.045551993
182	0x3d5f14c1	0.05446315
183	0x3e2d5c50	0.16929746
184	0xbea660fd	-0.3249587
185	0xbc6e8e71	-0.014560328
186	0xbd8e8894	-0.06959644
187	0xbce749f3	-0.028233504
188	0xbe68e6c6	-0.22744283
189	0x3ea5bc42	0.32370192
190	0x3c0e5888	0.0086881
191	0x3e9506b4	0.29106677
192	0x3bd2822f	0.0064242105
193	0x3d1c2cba	0.038128592
194	0x3eac3d88	0.33640695
195	0xbf17d83a	-0.5931431
196	0xbea4acd9	-0.32163122
197	0xbdeceead	-0.11568961
198	0xbea2e461	-0.31814864
199	0x3d8cd04e	0.068756685
200	0x3b2822f7	0.0025655606
201	0x3b638b6b	0.003472055
202	0xbd0658e0	-0.0327996
203	0x3ddb57bb	0.10710093
204	0xbba07440	-0.0048966706
205	0xbd0ae7d5	-0.0339125
206	0x3da490af	0.08035409
207	0xbd849d33	-0.06475296
208	0x3d4fe977	0.05075976
209	0x3e9634f7	0.29337284
210	0xbe630626	-0.22170314
211	0x3e05397f	0.13010214
212	0xbeb1b3c7	-0.34707472
213	0x3d94df4a	0.072691515
214	0xbcca3054	-0.024681248
215	0xbddb021c	-0.10693762
216	0x3d5189a1	0.051156644
217	0x3e0d36a7	0.1379038
218	0x3e3bb65d	0.18331285
219	0xbccc5341	-0.024942042
220	0xbdb88337	-0.09009402
221	0x3af39fac	0.0018587015
222	0xbe2c8b21	-0.16849948
223	0x3e20e149	0.1571094
224	0x3e5c4087	0.2150899
225	0x3d05d32c	0.032672092
226	0x3d66c019	0.056335542
227	0xbc88390c	-0.016628765
228	0xbce89fe5	-0.028396556
229	0xbbccd68f	-0.0062511633
230	0xbdcb8035	-0.09936563
231	0xbe92bbd1	-0.28658918
232	0xbdadc652	-0.08485092
233	0x3e4b5f21	0.19860508
234	0x3de2af3e	0.11068581
235	0x3d031044	0.031997934
236	0xbe0af0d0	-0.13568425
237	0x3e19a9c0	0.1500616
238	0x3e16db13	0.14732008
239	0x3d08c1d6	0.03338798
240	0x3e3c8846	0.18411359
241	0x3dcd3138	0.10019153
242	0x3e7202fb	0.2363395
243	0x3e1f2bab	0.15544002
244	0x3e018af7	0.12650667
245	0x3ce3f84b	0.027828356
246	0x3e80213a	0.2502535
247	0x3db541c9	0.08850438
248	0x3e98b5d2	0.29826218
249	0x3e113091	0.14178683
250	0x3df02dc5	0.1172748
251	0x3e8f1b92	0.27950722
252	0x3c9becf1	0.01903388
253	0xbdf78fe9	-0.120879956
254	0xbd023f9c	-0.031798944
255	0x3dda89f3	0.10670843

l2.bias f4 [10]
0	0x3e5e551c	0.21712154
1	0xbe81c538	-0.25345778
2	0x3db61b15	0.08891884
3	0xbe66b8a1	-0.22531368
4	0xbdca9afa	-0.09892841
5	0xbe2341ef	-0.1594312
6	0xbdb6bca2	-0.089226976
7	0xbec12626	-0.37724417
8	0x3f194c47	0.59882015
9	0x3ddd3cd5	0.108026184
